…
            "text/plain": [
              "======================================================================================================================================================\n",
              "Layer (type:depth-idx)                             Input Shape               Output Shape              Param #                   Kernel Shape\n",
              "======================================================================================================================================================\n",
              "MRINet                                             [1, 3, 224, 224]          [1, 4]                    --                        --\n",
              "├─Sequential: 1-1                                  [1, 3, 224, 224]          [1, 21, 112, 112]         --                        --\n",
              "│    └─Conv2d: 2-1                                 [1, 3, 224, 224]          [1, 21, 224, 224]         588                       [3, 3]\n",
              "│    └─BatchNorm2d: 2-2                            [1, 21, 224, 224]         [1, 21, 224, 224]         42                        --\n",
              "│    └─ReLU: 2-3                                   [1, 21, 224, 224]         [1, 21, 224, 224]         --                        --\n",
              "│    └─MaxPool2d: 2-4                              [1, 21, 224, 224]         [1, 21, 112, 112]         --                        2\n",
              "├─Sequential: 1-2                                  [1, 21, 112, 112]         [1, 34, 56, 56]           --                        --\n",
              "│    └─Conv2d: 2-5                                 [1, 21, 112, 112]         [1, 34, 112, 112]         6,460                     [3, 3]\n",
              "│    └─BatchNorm2d: 2-6                            [1, 34, 112, 112]         [1, 34, 112, 112]         68                        --\n",
              "│    └─ReLU: 2-7                                   [1, 34, 112, 112]         [1, 34, 112, 112]         --                        --\n",
              "│    └─MaxPool2d: 2-8                              [1, 34, 112, 112]         [1, 34, 56, 56]           --                        2\n",
              "├─Sequential: 1-3                                  [1, 34, 56, 56]           [1, 34, 28, 28]           --                        --\n",
              "│    └─AvgTwiceMaxPooling2D: 2-9                   [1, 34, 56, 56]           [1, 34, 28, 28]           --                        --\n",
              "│    │    └─AvgPool2d: 3-1                         [1, 34, 56, 56]           [1, 34, 28, 28]           --                        3\n",
              "│    │    └─MaxPool2d: 3-2                         [1, 34, 56, 56]           [1, 34, 28, 28]           --                        3\n",
              "│    └─GELU: 2-10                                  [1, 34, 28, 28]           [1, 34, 28, 28]           --                        --\n",
              "├─Sequential: 1-4                                  [1, 34, 56, 56]           [1, 55, 28, 28]           --                        --\n",
              "│    └─Conv2d: 2-11                                [1, 34, 56, 56]           [1, 55, 56, 56]           16,885                    [3, 3]\n",
              "│    └─ReLU: 2-12                                  [1, 55, 56, 56]           [1, 55, 56, 56]           --                        --\n",
              "│    └─MaxPool2d: 2-13                             [1, 55, 56, 56]           [1, 55, 28, 28]           --                        2\n",
              "│    └─BatchNorm2d: 2-14                           [1, 55, 28, 28]           [1, 55, 28, 28]           110                       --\n",
              "├─Sequential: 1-5                                  [1, 55, 28, 28]           [1, 24, 14, 14]           --                        --\n",
              "│    └─AvgTwiceMaxPooling2D: 2-15                  [1, 55, 28, 28]           [1, 55, 14, 14]           --                        --\n",
              "│    │    └─AvgPool2d: 3-3                         [1, 55, 28, 28]           [1, 55, 14, 14]           --                        3\n",
              "│    │    └─MaxPool2d: 3-4                         [1, 55, 28, 28]           [1, 55, 14, 14]           --                        3\n",
              "│    └─Conv2d: 2-16                                [1, 55, 14, 14]           [1, 24, 14, 14]           11,904                    [3, 3]\n",
              "│    └─GELU: 2-17                                  [1, 24, 14, 14]           [1, 24, 14, 14]           --                        --\n",
              "│    └─BatchNorm2d: 2-18                           [1, 24, 14, 14]           [1, 24, 14, 14]           48                        --\n",
              "├─Sequential: 1-6                                  [1, 89, 28, 28]           [1, 89, 14, 14]           --                        --\n",
              "│    └─Conv2d: 2-19                                [1, 89, 28, 28]           [1, 89, 28, 28]           71,378                    [3, 3]\n",
              "│    └─BatchNorm2d: 2-20                           [1, 89, 28, 28]           [1, 89, 28, 28]           178                       --\n",
              "│    └─MaxPool2d: 2-21                             [1, 89, 28, 28]           [1, 89, 14, 14]           --                        2\n",
              "├─Sequential: 1-7                                  [1, 113, 14, 14]          [1, 144, 7, 7]            --                        --\n",
              "│    └─Conv2d: 2-22                                [1, 113, 14, 14]          [1, 144, 14, 14]          146,592                   [3, 3]\n",
              "│    └─BatchNorm2d: 2-23                           [1, 144, 14, 14]          [1, 144, 14, 14]          288                       --\n",
              "│    └─MaxPool2d: 2-24                             [1, 144, 14, 14]          [1, 144, 7, 7]            --                        2\n",
              "├─Sequential: 1-8                                  [1, 144, 7, 7]            [1, 233, 7, 7]            --                        --\n",
              "│    └─Conv2d: 2-25                                [1, 144, 7, 7]            [1, 233, 7, 7]            302,201                   [3, 3]\n",
              "│    └─Conv2d: 2-26                                [1, 233, 7, 7]            [1, 233, 7, 7]            2,330                     [3, 3]\n",
              "│    └─BatchNorm2d: 2-27                           [1, 233, 7, 7]            [1, 233, 7, 7]            466                       --\n",
              "├─Sequential: 1-9                                  [1, 233, 7, 7]            [1, 233, 7, 7]            --                        --\n",
              "│    └─Conv2d: 2-28                                [1, 233, 7, 7]            [1, 233, 7, 7]            488,834                   [3, 3]\n",
              "│    └─Conv2d: 2-29                                [1, 233, 7, 7]            [1, 233, 7, 7]            2,330                     [3, 3]\n",
              "│    └─BatchNorm2d: 2-30                           [1, 233, 7, 7]            [1, 233, 7, 7]            466                       --\n",
              "├─AdaptiveAvgPool2d: 1-10                          [1, 233, 7, 7]            [1, 233, 1, 1]            --                        --\n",
              "├─Sequential: 1-11                                 [1, 113, 14, 14]          [1, 55, 28, 28]           --                        --\n",
              "│    └─Upsample: 2-31                              [1, 113, 14, 14]          [1, 113, 28, 28]          --                        --\n",
              "│    └─Conv2d: 2-32                                [1, 113, 28, 28]          [1, 55, 28, 28]           55,990                    [3, 3]\n",
              "│    └─BatchNorm2d: 2-33                           [1, 55, 28, 28]           [1, 55, 28, 28]           110                       --\n",
              "├─Sequential: 1-12                                 [1, 21, 112, 112]         [1, 21, 28, 28]           --                        --\n",
              "│    └─MaxPool2d: 2-34                             [1, 21, 112, 112]         [1, 21, 28, 28]           --                        4\n",
              "│    └─Conv2d: 2-35                                [1, 21, 28, 28]           [1, 21, 28, 28]           462                       [1, 1]\n",
              "│    └─BatchNorm2d: 2-36                           [1, 21, 28, 28]           [1, 21, 28, 28]           42                        --\n",
              "├─SimpleViT: 1-13                                  [1, 76, 28, 28]           [1, 64]                   --                        --\n",
              "│    └─Conv2d: 2-37                                [1, 76, 28, 28]           [1, 64, 4, 4]             238,400                   [7, 7]\n",
              "│    └─TransformerEncoder: 2-38                    [1, 16, 64]               [1, 16, 64]               --                        --\n",
              "│    │    └─ModuleList: 3-5                        --                        --                        --                        --\n",
              "│    │    │    └─TransformerEncoderLayer: 4-1      [1, 16, 64]               [1, 16, 64]               --                        --\n",
              "│    │    │    │    └─MultiheadAttention: 5-1      [1, 16, 64]               [1, 16, 64]               16,640                    --\n",
              "│    │    │    │    └─Dropout: 5-2                 [1, 16, 64]               [1, 16, 64]               --                        --\n",
              "│    │    │    │    └─LayerNorm: 5-3               [1, 16, 64]               [1, 16, 64]               128                       --\n",
              "│    │    │    │    └─Linear: 5-4                  [1, 16, 64]               [1, 16, 2048]             133,120                   --\n",
              "│    │    │    │    └─Dropout: 5-5                 [1, 16, 2048]             [1, 16, 2048]             --                        --\n",
              "│    │    │    │    └─Linear: 5-6                  [1, 16, 2048]             [1, 16, 64]               131,136                   --\n",
              "│    │    │    │    └─Dropout: 5-7                 [1, 16, 64]               [1, 16, 64]               --                        --\n",
              "│    │    │    │    └─LayerNorm: 5-8               [1, 16, 64]               [1, 16, 64]               128                       --\n",
              "├─Linear: 1-14                                     [1, 297]                  [1, 4]                    1,192                     --\n",
              "======================================================================================================================================================\n",
              "Total params: 1,628,516\n",
              "Trainable params: 1,628,516\n",
              "Non-trainable params: 0\n",
              "Total mult-adds (Units.MEGABYTES): 337.84\n",
              "======================================================================================================================================================\n",
…
